Layer name, IFMAP Height, IFMAP Width, Filter Height, Filter Width, Channels, Num Filter, Strides,

features_conv0, 224, 224, 7, 7, 3, 64, 2,
features_denseblock1_denselayer1_conv1, 56, 56, 1, 1, 64, 128, 1,
features_denseblock1_denselayer1_conv2, 56, 56, 3, 3, 128, 32, 1,
features_denseblock1_denselayer2_conv1, 56, 56, 1, 1, 96, 128, 1,
features_denseblock1_denselayer2_conv2, 56, 56, 3, 3, 128, 32, 1,
features_denseblock1_denselayer3_conv1, 56, 56, 1, 1, 128, 128, 1,
features_denseblock1_denselayer3_conv2, 56, 56, 3, 3, 128, 32, 1,
features_denseblock1_denselayer4_conv1, 56, 56, 1, 1, 160, 128, 1,
features_denseblock1_denselayer4_conv2, 56, 56, 3, 3, 128, 32, 1,
features_denseblock1_denselayer5_conv1, 56, 56, 1, 1, 192, 128, 1,
features_denseblock1_denselayer5_conv2, 56, 56, 3, 3, 128, 32, 1,
features_denseblock1_denselayer6_conv1, 56, 56, 1, 1, 224, 128, 1,
features_denseblock1_denselayer6_conv2, 56, 56, 3, 3, 128, 32, 1,
features_transition1_conv, 56, 56, 1, 1, 256, 128, 1,
features_denseblock2_denselayer1_conv1, 28, 28, 1, 1, 128, 128, 1,
features_denseblock2_denselayer1_conv2, 28, 28, 3, 3, 128, 32, 1,
features_denseblock2_denselayer2_conv1, 28, 28, 1, 1, 160, 128, 1,
features_denseblock2_denselayer2_conv2, 28, 28, 3, 3, 128, 32, 1,
features_denseblock2_denselayer3_conv1, 28, 28, 1, 1, 192, 128, 1,
features_denseblock2_denselayer3_conv2, 28, 28, 3, 3, 128, 32, 1,
features_denseblock2_denselayer4_conv1, 28, 28, 1, 1, 224, 128, 1,
features_denseblock2_denselayer4_conv2, 28, 28, 3, 3, 128, 32, 1,
features_denseblock2_denselayer5_conv1, 28, 28, 1, 1, 256, 128, 1,
features_denseblock2_denselayer5_conv2, 28, 28, 3, 3, 128, 32, 1,
features_denseblock2_denselayer6_conv1, 28, 28, 1, 1, 288, 128, 1,
features_denseblock2_denselayer6_conv2, 28, 28, 3, 3, 128, 32, 1,
features_denseblock2_denselayer7_conv1, 28, 28, 1, 1, 320, 128, 1,
features_denseblock2_denselayer7_conv2, 28, 28, 3, 3, 128, 32, 1,
features_denseblock2_denselayer8_conv1, 28, 28, 1, 1, 352, 128, 1,
features_denseblock2_denselayer8_conv2, 28, 28, 3, 3, 128, 32, 1,
features_denseblock2_denselayer9_conv1, 28, 28, 1, 1, 384, 128, 1,
features_denseblock2_denselayer9_conv2, 28, 28, 3, 3, 128, 32, 1,
features_denseblock2_denselayer10_conv1, 28, 28, 1, 1, 416, 128, 1,
features_denseblock2_denselayer10_conv2, 28, 28, 3, 3, 128, 32, 1,
features_denseblock2_denselayer11_conv1, 28, 28, 1, 1, 448, 128, 1,
features_denseblock2_denselayer11_conv2, 28, 28, 3, 3, 128, 32, 1,
features_denseblock2_denselayer12_conv1, 28, 28, 1, 1, 480, 128, 1,
features_denseblock2_denselayer12_conv2, 28, 28, 3, 3, 128, 32, 1,
features_transition2_conv, 28, 28, 1, 1, 512, 256, 1,
features_denseblock3_denselayer1_conv1, 14, 14, 1, 1, 256, 128, 1,
features_denseblock3_denselayer1_conv2, 14, 14, 3, 3, 128, 32, 1,
features_denseblock3_denselayer2_conv1, 14, 14, 1, 1, 288, 128, 1,
features_denseblock3_denselayer2_conv2, 14, 14, 3, 3, 128, 32, 1,
features_denseblock3_denselayer3_conv1, 14, 14, 1, 1, 320, 128, 1,
features_denseblock3_denselayer3_conv2, 14, 14, 3, 3, 128, 32, 1,
features_denseblock3_denselayer4_conv1, 14, 14, 1, 1, 352, 128, 1,
features_denseblock3_denselayer4_conv2, 14, 14, 3, 3, 128, 32, 1,
features_denseblock3_denselayer5_conv1, 14, 14, 1, 1, 384, 128, 1,
features_denseblock3_denselayer5_conv2, 14, 14, 3, 3, 128, 32, 1,
features_denseblock3_denselayer6_conv1, 14, 14, 1, 1, 416, 128, 1,
features_denseblock3_denselayer6_conv2, 14, 14, 3, 3, 128, 32, 1,
features_denseblock3_denselayer7_conv1, 14, 14, 1, 1, 448, 128, 1,
features_denseblock3_denselayer7_conv2, 14, 14, 3, 3, 128, 32, 1,
features_denseblock3_denselayer8_conv1, 14, 14, 1, 1, 480, 128, 1,
features_denseblock3_denselayer8_conv2, 14, 14, 3, 3, 128, 32, 1,
features_denseblock3_denselayer9_conv1, 14, 14, 1, 1, 512, 128, 1,
features_denseblock3_denselayer9_conv2, 14, 14, 3, 3, 128, 32, 1,
features_denseblock3_denselayer10_conv1, 14, 14, 1, 1, 544, 128, 1,
features_denseblock3_denselayer10_conv2, 14, 14, 3, 3, 128, 32, 1,
features_denseblock3_denselayer11_conv1, 14, 14, 1, 1, 576, 128, 1,
features_denseblock3_denselayer11_conv2, 14, 14, 3, 3, 128, 32, 1,
features_denseblock3_denselayer12_conv1, 14, 14, 1, 1, 608, 128, 1,
features_denseblock3_denselayer12_conv2, 14, 14, 3, 3, 128, 32, 1,
features_denseblock3_denselayer13_conv1, 14, 14, 1, 1, 640, 128, 1,
features_denseblock3_denselayer13_conv2, 14, 14, 3, 3, 128, 32, 1,
features_denseblock3_denselayer14_conv1, 14, 14, 1, 1, 672, 128, 1,
features_denseblock3_denselayer14_conv2, 14, 14, 3, 3, 128, 32, 1,
features_denseblock3_denselayer15_conv1, 14, 14, 1, 1, 704, 128, 1,
features_denseblock3_denselayer15_conv2, 14, 14, 3, 3, 128, 32, 1,
features_denseblock3_denselayer16_conv1, 14, 14, 1, 1, 736, 128, 1,
features_denseblock3_denselayer16_conv2, 14, 14, 3, 3, 128, 32, 1,
features_denseblock3_denselayer17_conv1, 14, 14, 1, 1, 768, 128, 1,
features_denseblock3_denselayer17_conv2, 14, 14, 3, 3, 128, 32, 1,
features_denseblock3_denselayer18_conv1, 14, 14, 1, 1, 800, 128, 1,
features_denseblock3_denselayer18_conv2, 14, 14, 3, 3, 128, 32, 1,
features_denseblock3_denselayer19_conv1, 14, 14, 1, 1, 832, 128, 1,
features_denseblock3_denselayer19_conv2, 14, 14, 3, 3, 128, 32, 1,
features_denseblock3_denselayer20_conv1, 14, 14, 1, 1, 864, 128, 1,
features_denseblock3_denselayer20_conv2, 14, 14, 3, 3, 128, 32, 1,
features_denseblock3_denselayer21_conv1, 14, 14, 1, 1, 896, 128, 1,
features_denseblock3_denselayer21_conv2, 14, 14, 3, 3, 128, 32, 1,
features_denseblock3_denselayer22_conv1, 14, 14, 1, 1, 928, 128, 1,
features_denseblock3_denselayer22_conv2, 14, 14, 3, 3, 128, 32, 1,
features_denseblock3_denselayer23_conv1, 14, 14, 1, 1, 960, 128, 1,
features_denseblock3_denselayer23_conv2, 14, 14, 3, 3, 128, 32, 1,
features_denseblock3_denselayer24_conv1, 14, 14, 1, 1, 992, 128, 1,
features_denseblock3_denselayer24_conv2, 14, 14, 3, 3, 128, 32, 1,
features_denseblock3_denselayer25_conv1, 14, 14, 1, 1, 1024, 128, 1,
features_denseblock3_denselayer25_conv2, 14, 14, 3, 3, 128, 32, 1,
features_denseblock3_denselayer26_conv1, 14, 14, 1, 1, 1056, 128, 1,
features_denseblock3_denselayer26_conv2, 14, 14, 3, 3, 128, 32, 1,
features_denseblock3_denselayer27_conv1, 14, 14, 1, 1, 1088, 128, 1,
features_denseblock3_denselayer27_conv2, 14, 14, 3, 3, 128, 32, 1,
features_denseblock3_denselayer28_conv1, 14, 14, 1, 1, 1120, 128, 1,
features_denseblock3_denselayer28_conv2, 14, 14, 3, 3, 128, 32, 1,
features_denseblock3_denselayer29_conv1, 14, 14, 1, 1, 1152, 128, 1,
features_denseblock3_denselayer29_conv2, 14, 14, 3, 3, 128, 32, 1,
features_denseblock3_denselayer30_conv1, 14, 14, 1, 1, 1184, 128, 1,
features_denseblock3_denselayer30_conv2, 14, 14, 3, 3, 128, 32, 1,
features_denseblock3_denselayer31_conv1, 14, 14, 1, 1, 1216, 128, 1,
features_denseblock3_denselayer31_conv2, 14, 14, 3, 3, 128, 32, 1,
features_denseblock3_denselayer32_conv1, 14, 14, 1, 1, 1248, 128, 1,
features_denseblock3_denselayer32_conv2, 14, 14, 3, 3, 128, 32, 1,
features_denseblock3_denselayer33_conv1, 14, 14, 1, 1, 1280, 128, 1,
features_denseblock3_denselayer33_conv2, 14, 14, 3, 3, 128, 32, 1,
features_denseblock3_denselayer34_conv1, 14, 14, 1, 1, 1312, 128, 1,
features_denseblock3_denselayer34_conv2, 14, 14, 3, 3, 128, 32, 1,
features_denseblock3_denselayer35_conv1, 14, 14, 1, 1, 1344, 128, 1,
features_denseblock3_denselayer35_conv2, 14, 14, 3, 3, 128, 32, 1,
features_denseblock3_denselayer36_conv1, 14, 14, 1, 1, 1376, 128, 1,
features_denseblock3_denselayer36_conv2, 14, 14, 3, 3, 128, 32, 1,
features_denseblock3_denselayer37_conv1, 14, 14, 1, 1, 1408, 128, 1,
features_denseblock3_denselayer37_conv2, 14, 14, 3, 3, 128, 32, 1,
features_denseblock3_denselayer38_conv1, 14, 14, 1, 1, 1440, 128, 1,
features_denseblock3_denselayer38_conv2, 14, 14, 3, 3, 128, 32, 1,
features_denseblock3_denselayer39_conv1, 14, 14, 1, 1, 1472, 128, 1,
features_denseblock3_denselayer39_conv2, 14, 14, 3, 3, 128, 32, 1,
features_denseblock3_denselayer40_conv1, 14, 14, 1, 1, 1504, 128, 1,
features_denseblock3_denselayer40_conv2, 14, 14, 3, 3, 128, 32, 1,
features_denseblock3_denselayer41_conv1, 14, 14, 1, 1, 1536, 128, 1,
features_denseblock3_denselayer41_conv2, 14, 14, 3, 3, 128, 32, 1,
features_denseblock3_denselayer42_conv1, 14, 14, 1, 1, 1568, 128, 1,
features_denseblock3_denselayer42_conv2, 14, 14, 3, 3, 128, 32, 1,
features_denseblock3_denselayer43_conv1, 14, 14, 1, 1, 1600, 128, 1,
features_denseblock3_denselayer43_conv2, 14, 14, 3, 3, 128, 32, 1,
features_denseblock3_denselayer44_conv1, 14, 14, 1, 1, 1632, 128, 1,
features_denseblock3_denselayer44_conv2, 14, 14, 3, 3, 128, 32, 1,
features_denseblock3_denselayer45_conv1, 14, 14, 1, 1, 1664, 128, 1,
features_denseblock3_denselayer45_conv2, 14, 14, 3, 3, 128, 32, 1,
features_denseblock3_denselayer46_conv1, 14, 14, 1, 1, 1696, 128, 1,
features_denseblock3_denselayer46_conv2, 14, 14, 3, 3, 128, 32, 1,
features_denseblock3_denselayer47_conv1, 14, 14, 1, 1, 1728, 128, 1,
features_denseblock3_denselayer47_conv2, 14, 14, 3, 3, 128, 32, 1,
features_denseblock3_denselayer48_conv1, 14, 14, 1, 1, 1760, 128, 1,
features_denseblock3_denselayer48_conv2, 14, 14, 3, 3, 128, 32, 1,
features_transition3_conv, 14, 14, 1, 1, 1792, 896, 1,
features_denseblock4_denselayer1_conv1, 7, 7, 1, 1, 896, 128, 1,
features_denseblock4_denselayer1_conv2, 7, 7, 3, 3, 128, 32, 1,
features_denseblock4_denselayer2_conv1, 7, 7, 1, 1, 928, 128, 1,
features_denseblock4_denselayer2_conv2, 7, 7, 3, 3, 128, 32, 1,
features_denseblock4_denselayer3_conv1, 7, 7, 1, 1, 960, 128, 1,
features_denseblock4_denselayer3_conv2, 7, 7, 3, 3, 128, 32, 1,
features_denseblock4_denselayer4_conv1, 7, 7, 1, 1, 992, 128, 1,
features_denseblock4_denselayer4_conv2, 7, 7, 3, 3, 128, 32, 1,
features_denseblock4_denselayer5_conv1, 7, 7, 1, 1, 1024, 128, 1,
features_denseblock4_denselayer5_conv2, 7, 7, 3, 3, 128, 32, 1,
features_denseblock4_denselayer6_conv1, 7, 7, 1, 1, 1056, 128, 1,
features_denseblock4_denselayer6_conv2, 7, 7, 3, 3, 128, 32, 1,
features_denseblock4_denselayer7_conv1, 7, 7, 1, 1, 1088, 128, 1,
features_denseblock4_denselayer7_conv2, 7, 7, 3, 3, 128, 32, 1,
features_denseblock4_denselayer8_conv1, 7, 7, 1, 1, 1120, 128, 1,
features_denseblock4_denselayer8_conv2, 7, 7, 3, 3, 128, 32, 1,
features_denseblock4_denselayer9_conv1, 7, 7, 1, 1, 1152, 128, 1,
features_denseblock4_denselayer9_conv2, 7, 7, 3, 3, 128, 32, 1,
features_denseblock4_denselayer10_conv1, 7, 7, 1, 1, 1184, 128, 1,
features_denseblock4_denselayer10_conv2, 7, 7, 3, 3, 128, 32, 1,
features_denseblock4_denselayer11_conv1, 7, 7, 1, 1, 1216, 128, 1,
features_denseblock4_denselayer11_conv2, 7, 7, 3, 3, 128, 32, 1,
features_denseblock4_denselayer12_conv1, 7, 7, 1, 1, 1248, 128, 1,
features_denseblock4_denselayer12_conv2, 7, 7, 3, 3, 128, 32, 1,
features_denseblock4_denselayer13_conv1, 7, 7, 1, 1, 1280, 128, 1,
features_denseblock4_denselayer13_conv2, 7, 7, 3, 3, 128, 32, 1,
features_denseblock4_denselayer14_conv1, 7, 7, 1, 1, 1312, 128, 1,
features_denseblock4_denselayer14_conv2, 7, 7, 3, 3, 128, 32, 1,
features_denseblock4_denselayer15_conv1, 7, 7, 1, 1, 1344, 128, 1,
features_denseblock4_denselayer15_conv2, 7, 7, 3, 3, 128, 32, 1,
features_denseblock4_denselayer16_conv1, 7, 7, 1, 1, 1376, 128, 1,
features_denseblock4_denselayer16_conv2, 7, 7, 3, 3, 128, 32, 1,
features_denseblock4_denselayer17_conv1, 7, 7, 1, 1, 1408, 128, 1,
features_denseblock4_denselayer17_conv2, 7, 7, 3, 3, 128, 32, 1,
features_denseblock4_denselayer18_conv1, 7, 7, 1, 1, 1440, 128, 1,
features_denseblock4_denselayer18_conv2, 7, 7, 3, 3, 128, 32, 1,
features_denseblock4_denselayer19_conv1, 7, 7, 1, 1, 1472, 128, 1,
features_denseblock4_denselayer19_conv2, 7, 7, 3, 3, 128, 32, 1,
features_denseblock4_denselayer20_conv1, 7, 7, 1, 1, 1504, 128, 1,
features_denseblock4_denselayer20_conv2, 7, 7, 3, 3, 128, 32, 1,
features_denseblock4_denselayer21_conv1, 7, 7, 1, 1, 1536, 128, 1,
features_denseblock4_denselayer21_conv2, 7, 7, 3, 3, 128, 32, 1,
features_denseblock4_denselayer22_conv1, 7, 7, 1, 1, 1568, 128, 1,
features_denseblock4_denselayer22_conv2, 7, 7, 3, 3, 128, 32, 1,
features_denseblock4_denselayer23_conv1, 7, 7, 1, 1, 1600, 128, 1,
features_denseblock4_denselayer23_conv2, 7, 7, 3, 3, 128, 32, 1,
features_denseblock4_denselayer24_conv1, 7, 7, 1, 1, 1632, 128, 1,
features_denseblock4_denselayer24_conv2, 7, 7, 3, 3, 128, 32, 1,
features_denseblock4_denselayer25_conv1, 7, 7, 1, 1, 1664, 128, 1,
features_denseblock4_denselayer25_conv2, 7, 7, 3, 3, 128, 32, 1,
features_denseblock4_denselayer26_conv1, 7, 7, 1, 1, 1696, 128, 1,
features_denseblock4_denselayer26_conv2, 7, 7, 3, 3, 128, 32, 1,
features_denseblock4_denselayer27_conv1, 7, 7, 1, 1, 1728, 128, 1,
features_denseblock4_denselayer27_conv2, 7, 7, 3, 3, 128, 32, 1,
features_denseblock4_denselayer28_conv1, 7, 7, 1, 1, 1760, 128, 1,
features_denseblock4_denselayer28_conv2, 7, 7, 3, 3, 128, 32, 1,
features_denseblock4_denselayer29_conv1, 7, 7, 1, 1, 1792, 128, 1,
features_denseblock4_denselayer29_conv2, 7, 7, 3, 3, 128, 32, 1,
features_denseblock4_denselayer30_conv1, 7, 7, 1, 1, 1824, 128, 1,
features_denseblock4_denselayer30_conv2, 7, 7, 3, 3, 128, 32, 1,
features_denseblock4_denselayer31_conv1, 7, 7, 1, 1, 1856, 128, 1,
features_denseblock4_denselayer31_conv2, 7, 7, 3, 3, 128, 32, 1,
features_denseblock4_denselayer32_conv1, 7, 7, 1, 1, 1888, 128, 1,
features_denseblock4_denselayer32_conv2, 7, 7, 3, 3, 128, 32, 1,
classifier, 1, 1, 1, 1, 1920, 1000, 1,
