Layer name, IFMAP Height, IFMAP Width, Filter Height, Filter Width, Channels, Num Filter, Strides,

Conv2d_1a_3x3_conv, 224, 224, 3, 3, 3, 32, 2,
Conv2d_2a_3x3_conv, 111, 111, 3, 3, 32, 32, 1,
Conv2d_2b_3x3_conv, 109, 109, 3, 3, 32, 64, 1,
Conv2d_3b_1x1_conv, 54, 54, 1, 1, 64, 80, 1,
Conv2d_4a_3x3_conv, 54, 54, 3, 3, 80, 192, 1,
Mixed_5b_branch1x1_conv, 25, 25, 1, 1, 192, 64, 1,
Mixed_5b_branch5x5_1_conv, 25, 25, 1, 1, 192, 48, 1,
Mixed_5b_branch5x5_2_conv, 25, 25, 5, 5, 48, 64, 1,
Mixed_5b_branch3x3dbl_1_conv, 25, 25, 1, 1, 192, 64, 1,
Mixed_5b_branch3x3dbl_2_conv, 25, 25, 3, 3, 64, 96, 1,
Mixed_5b_branch3x3dbl_3_conv, 25, 25, 3, 3, 96, 96, 1,
Mixed_5b_branch_pool_conv, 25, 25, 1, 1, 192, 32, 1,
Mixed_5c_branch1x1_conv, 25, 25, 1, 1, 256, 64, 1,
Mixed_5c_branch5x5_1_conv, 25, 25, 1, 1, 256, 48, 1,
Mixed_5c_branch5x5_2_conv, 25, 25, 5, 5, 48, 64, 1,
Mixed_5c_branch3x3dbl_1_conv, 25, 25, 1, 1, 256, 64, 1,
Mixed_5c_branch3x3dbl_2_conv, 25, 25, 3, 3, 64, 96, 1,
Mixed_5c_branch3x3dbl_3_conv, 25, 25, 3, 3, 96, 96, 1,
Mixed_5c_branch_pool_conv, 25, 25, 1, 1, 256, 64, 1,
Mixed_5d_branch1x1_conv, 25, 25, 1, 1, 288, 64, 1,
Mixed_5d_branch5x5_1_conv, 25, 25, 1, 1, 288, 48, 1,
Mixed_5d_branch5x5_2_conv, 25, 25, 5, 5, 48, 64, 1,
Mixed_5d_branch3x3dbl_1_conv, 25, 25, 1, 1, 288, 64, 1,
Mixed_5d_branch3x3dbl_2_conv, 25, 25, 3, 3, 64, 96, 1,
Mixed_5d_branch3x3dbl_3_conv, 25, 25, 3, 3, 96, 96, 1,
Mixed_5d_branch_pool_conv, 25, 25, 1, 1, 288, 64, 1,
Mixed_6a_branch3x3_conv, 25, 25, 3, 3, 288, 384, 2,
Mixed_6a_branch3x3dbl_1_conv, 25, 25, 1, 1, 288, 64, 1,
Mixed_6a_branch3x3dbl_2_conv, 25, 25, 3, 3, 64, 96, 1,
Mixed_6a_branch3x3dbl_3_conv, 25, 25, 3, 3, 96, 96, 2,
Mixed_6b_branch1x1_conv, 12, 12, 1, 1, 768, 192, 1,
Mixed_6b_branch7x7_1_conv, 12, 12, 1, 1, 768, 128, 1,
Mixed_6b_branch7x7_2_conv, 12, 12, 1, 7, 128, 128, 1,
Mixed_6b_branch7x7_3_conv, 12, 12, 7, 1, 128, 192, 1,
Mixed_6b_branch7x7dbl_1_conv, 12, 12, 1, 1, 768, 128, 1,
Mixed_6b_branch7x7dbl_2_conv, 12, 12, 7, 1, 128, 128, 1,
Mixed_6b_branch7x7dbl_3_conv, 12, 12, 1, 7, 128, 128, 1,
Mixed_6b_branch7x7dbl_4_conv, 12, 12, 7, 1, 128, 128, 1,
Mixed_6b_branch7x7dbl_5_conv, 12, 12, 1, 7, 128, 192, 1,
Mixed_6b_branch_pool_conv, 12, 12, 1, 1, 768, 192, 1,
Mixed_6c_branch1x1_conv, 12, 12, 1, 1, 768, 192, 1,
Mixed_6c_branch7x7_1_conv, 12, 12, 1, 1, 768, 160, 1,
Mixed_6c_branch7x7_2_conv, 12, 12, 1, 7, 160, 160, 1,
Mixed_6c_branch7x7_3_conv, 12, 12, 7, 1, 160, 192, 1,
Mixed_6c_branch7x7dbl_1_conv, 12, 12, 1, 1, 768, 160, 1,
Mixed_6c_branch7x7dbl_2_conv, 12, 12, 7, 1, 160, 160, 1,
Mixed_6c_branch7x7dbl_3_conv, 12, 12, 1, 7, 160, 160, 1,
Mixed_6c_branch7x7dbl_4_conv, 12, 12, 7, 1, 160, 160, 1,
Mixed_6c_branch7x7dbl_5_conv, 12, 12, 1, 7, 160, 192, 1,
Mixed_6c_branch_pool_conv, 12, 12, 1, 1, 768, 192, 1,
Mixed_6d_branch1x1_conv, 12, 12, 1, 1, 768, 192, 1,
Mixed_6d_branch7x7_1_conv, 12, 12, 1, 1, 768, 160, 1,
Mixed_6d_branch7x7_2_conv, 12, 12, 1, 7, 160, 160, 1,
Mixed_6d_branch7x7_3_conv, 12, 12, 7, 1, 160, 192, 1,
Mixed_6d_branch7x7dbl_1_conv, 12, 12, 1, 1, 768, 160, 1,
Mixed_6d_branch7x7dbl_2_conv, 12, 12, 7, 1, 160, 160, 1,
Mixed_6d_branch7x7dbl_3_conv, 12, 12, 1, 7, 160, 160, 1,
Mixed_6d_branch7x7dbl_4_conv, 12, 12, 7, 1, 160, 160, 1,
Mixed_6d_branch7x7dbl_5_conv, 12, 12, 1, 7, 160, 192, 1,
Mixed_6d_branch_pool_conv, 12, 12, 1, 1, 768, 192, 1,
Mixed_6e_branch1x1_conv, 12, 12, 1, 1, 768, 192, 1,
Mixed_6e_branch7x7_1_conv, 12, 12, 1, 1, 768, 192, 1,
Mixed_6e_branch7x7_2_conv, 12, 12, 1, 7, 192, 192, 1,
Mixed_6e_branch7x7_3_conv, 12, 12, 7, 1, 192, 192, 1,
Mixed_6e_branch7x7dbl_1_conv, 12, 12, 1, 1, 768, 192, 1,
Mixed_6e_branch7x7dbl_2_conv, 12, 12, 7, 1, 192, 192, 1,
Mixed_6e_branch7x7dbl_3_conv, 12, 12, 1, 7, 192, 192, 1,
Mixed_6e_branch7x7dbl_4_conv, 12, 12, 7, 1, 192, 192, 1,
Mixed_6e_branch7x7dbl_5_conv, 12, 12, 1, 7, 192, 192, 1,
Mixed_6e_branch_pool_conv, 12, 12, 1, 1, 768, 192, 1,
Mixed_7a_branch3x3_1_conv, 12, 12, 1, 1, 768, 192, 1,
Mixed_7a_branch3x3_2_conv, 12, 12, 3, 3, 192, 320, 2,
Mixed_7a_branch7x7x3_1_conv, 12, 12, 1, 1, 768, 192, 1,
Mixed_7a_branch7x7x3_2_conv, 12, 12, 1, 7, 192, 192, 1,
Mixed_7a_branch7x7x3_3_conv, 12, 12, 7, 1, 192, 192, 1,
Mixed_7a_branch7x7x3_4_conv, 12, 12, 3, 3, 192, 192, 2,
Mixed_7b_branch1x1_conv, 5, 5, 1, 1, 1280, 320, 1,
Mixed_7b_branch3x3_1_conv, 5, 5, 1, 1, 1280, 384, 1,
Mixed_7b_branch3x3_2a_conv, 5, 5, 1, 3, 384, 384, 1,
Mixed_7b_branch3x3_2b_conv, 5, 5, 3, 1, 384, 384, 1,
Mixed_7b_branch3x3dbl_1_conv, 5, 5, 1, 1, 1280, 448, 1,
Mixed_7b_branch3x3dbl_2_conv, 5, 5, 3, 3, 448, 384, 1,
Mixed_7b_branch3x3dbl_3a_conv, 5, 5, 1, 3, 384, 384, 1,
Mixed_7b_branch3x3dbl_3b_conv, 5, 5, 3, 1, 384, 384, 1,
Mixed_7b_branch_pool_conv, 5, 5, 1, 1, 1280, 192, 1,
Mixed_7c_branch1x1_conv, 5, 5, 1, 1, 2048, 320, 1,
Mixed_7c_branch3x3_1_conv, 5, 5, 1, 1, 2048, 384, 1,
Mixed_7c_branch3x3_2a_conv, 5, 5, 1, 3, 384, 384, 1,
Mixed_7c_branch3x3_2b_conv, 5, 5, 3, 1, 384, 384, 1,
Mixed_7c_branch3x3dbl_1_conv, 5, 5, 1, 1, 2048, 448, 1,
Mixed_7c_branch3x3dbl_2_conv, 5, 5, 3, 3, 448, 384, 1,
Mixed_7c_branch3x3dbl_3a_conv, 5, 5, 1, 3, 384, 384, 1,
Mixed_7c_branch3x3dbl_3b_conv, 5, 5, 3, 1, 384, 384, 1,
Mixed_7c_branch_pool_conv, 5, 5, 1, 1, 2048, 192, 1,
fc, 1, 1, 1, 1, 2048, 1000, 1,
